machine_learning/creating_model/chess_evaluator_state_dict.pth (torch, 29766 bytes, 5 tensors)

fc1.weight f4 [64, 71]
-0.017530316 0.38731533 0.17627136 0.21400411 0.023037318 -0.16041224 0.08336091 0.14075595
-0.16224425 0.3772193 0.18490759 0.20022312 0.41926095 0.016858388 0.18793644 0.18337119
-0.28690407 0.4625695 0.31748173 -0.16587573 0.21336542 -0.0011120551 0.22730614 0.15418014
0.0039179237 0.0933727 0.28131872 -0.053894497 -0.010124419 -0.00010870633 0.098338 0.018712891
0.17800169 -0.21000347 0.12971286 -0.13322002 0.119048215 0.41254914 0.17201783 0.3075783
0.07353163 -0.17476955 -0.16563566 -0.008383491 0.13898745 -0.061316684 -0.12498129 0.3863762
-0.21222739 0.034439977 -0.16069214 0.018271767 0.08137266 -0.017931655 0.44117445 0.33284894
0.12254907 0.11874421 0.07235819 -0.0056136744 0.036939997 -0.08856451 -0.064617395 -0.20237702
0.2737899 0.2759514 0.41944304 0.46297392 0.4123668 -0.45867774 -0.36227074 -0.064825006
0.30565593 0.23725656 0.05947429 -0.08665586 -0.14679764 0.22871944 0.14901946 -0.21591832
0.13220102 0.2382356 0.25997597 0.28770274 -0.040794782 0.24183862 0.24272409 -0.1269762
0.28906614 0.17236875 0.05594569 0.23184636 0.02150821 0.33787733 0.112987824 -0.06157248
0.22631532 0.20012726 0.010732508 -0.08677294 0.12230589 0.16126621 0.09792549 0.08661445
-0.09735459 0.16031237 -0.19934842 0.10815049 0.34461272 0.2868899 0.39282224 0.08050171
-0.2648831 -0.22886486 -0.07804072 0.07526574 -0.075417854 -0.0010285589 0.25018597 -0.054470945
-0.10754418 -0.08655179 0.06830307 -0.079241775 0.014347704 0.39504597 0.28452954 -0.027913675
0.08775202 -0.06758008 0.06256005 -0.041464407 0.04307614 -0.1175543 -0.20835441 0.25382876
0.27152118 0.28442344 0.4114381 0.26149872 -0.38433626 -0.45323718 -0.0005722397 0.27283818
0.35041305 0.17301138 -0.10341802 -0.05784973 0.19136867 0.039696097 -0.19032736 0.2989789
0.09910998 0.12787502 0.3253373 -0.050882593 0.20228055 0.06050075 -0.1081305 0.27953953
0.22991392 0.08206949 0.20205206 -0.12161476 0.25004566 0.11795419 -0.0034128188 0.20340838
0.19252583 -0.09373438 0.10277296 0.024370998 0.11069335 0.22160096 0.023987679 -0.096286274
0.30884463 -0.14435038 0.07336133 0.23396206 0.2917133 0.1687198 -0.08937461 -0.14952676
-0.038852688 0.035451222 0.09454206 -0.05148885 -0.030817278 0.2025754 -0.14103763 0.0568453
-0.189707 0.1928476 0.050172534 0.055816066 0.33758274 0.24590003 0.16736911 0.0049204146
0.08140671 -0.053441968 0.019860568 -0.03622839 -0.1007955 -0.05487576 0.30024743 0.38389546
0.2501275 0.2939775 0.45528832 -0.42078742 -0.35078242 -0.020986207 -0.07322826 0.14309229
0.044408225 -0.27492726 -0.37940177 0.1816191 0.016081547 -0.29728055 -0.059383698 0.12352067
0.13535735 0.40282765 -0.36000648 0.14165716 -0.0729287 -0.34023497 0.3144351 0.2854945
-0.34645125 0.104235806 0.013248371 0.17642011 -0.31169996 -0.26180437 0.07751708 0.36422256
-0.214129 -0.08190992 0.07106595 -0.08187375 0.046298135 -0.062038146 -0.5090213 0.09067759
-0.28337747 -0.17348045 0.33884653 0.110610135 0.2004874 0.049760483 -0.48281842 -0.27779713
00000000: bd9b 8fbc 324e c63e 7b80 343e e523 5b3e
00000010: c2b8 bc3c 1b43 24be 20b9 aa3d 5422 103e
00000020: 5b23 26be e322 c13e 6a58 3d3e 4a07 4d3e
00000030: 5fa9 d63e 9a1a 8a3c 6972 403e a8c5 3b3e
00000040: 17e5 92be e9d5 ec3e f78c a23e 54db 29be
00000050: 777c 5a3e 61c2 91ba f1c2 683e 66e1 1d3e
00000060: ed61 803b 303a bf3d 0209 903e 7ac0 5cbd
00000070: e4e0 25bc 44f9 e3b8 6f65 c93d c74b 993c
00000080: 1346 363e 260b 57be 73d3 043e d46a 08be
00000090: 8dcf f33d a439 d33e 7125 303e e77a 9d3e
000000a0: c097 963d caf6 32be 659c 29be e95a 09bc
000000b0: ba52 0e3e 3427 7bbd 31f6 ffbd 1ad3 c53e
000000c0: 2352 59be ef10 0d3d 7b8c 24be acae 953c
000000d0: b6a6 a63d 68e5 92bc 9ee1 e13e 2d6b aa3e
000000e0: 02fb fa3d 2a30 f33d 8830 943d eaf2 b7bb
000000f0: 654e 173d 4f61 b5bd 2056 84bd ec3b 4fbe
00000100: 312e 8c3e 8049 8d3e 3dc1 d63e eb0a ed3e
00000110: be21 d33e cfd7 eabe 8d7b b9be f9c2 84bd
00000120: ef7e 9c3e 62f3 723e 509b 733d a178 b1bd
00000130: 1f52 16be 6e35 6a3e 8f98 183e b119 5dbe
00000140: b45f 073e 08f4 733e 921b 853e c64d 933e
00000150: 6e18 27bd 8ba4 773e aa8c 783e 0d06 02be
00000160: 7a00 943e 6f81 303e 4f27 653d 2269 6d3e
00000170: fc31 b03c 42fe ac3e 2966 e73d 6d33 7cbd
00000180: 34bf 673e 29ee 4c3e 67d7 2f3c 03b6 b1bd
00000190: 837b fa3d f822 253e 298d c83d eb62 b13d
000001a0: d861 c7bd ed28 243e fe21 4cbe 017e dd3d
000001b0: 1471 b03e 3ce3 923e ff1f c93e 15de a43d
000001c0: c29e 87be 8d5b 6abe d0d3 9fbd ed24 9a3d
000001d0: ad74 9abd b6d0 86ba 6018 803e ed1c 5fbd
000001e0: 1f40 dcbd 1142 b1bd 7be2 8b3d 8349 a2bd
000001f0: a212 6b3c 7743 ca3e dbad 913e 38ab e4bc
00000200: 55b7 b33d 6d67 8abd 7c1f 803d 95d6 29bd
00000210: 9b70 303d 4fc0 f0bd dc5a 55be d8f5 813e
00000220: d304 8b3e f39f 913e 04a8 d23e 29e3 853e
00000230: b9c7 c4be b40e e8be 5b02 16ba 72b1 8b3e
00000240: 5769 b33e e529 313e d4cc d3bd d7f3 6cbd
00000250: 26f6 433e 6098 223d 2de5 42be c313 993e
00000260: 2cfa ca3d abf1 023e 9c92 a63e 446a 50bd
00000270: a222 4f3e a2cf 773d 8673 ddbd ce1f 8f3e
00000280: 8e6e 6b3e 0c14 a83d bce6 4e3e 2911 f9bd
00000290: fc05 803e f791 f13d 99a9 5fbb 494a 503e
000002a0: 7e25 453e d0f7 bfbd a17a d23d b0a5 c73c
000002b0: 32b3 e23d 5deb 623e cf81 c43c bd31 c5bd
000002c0: e220 9e3e 96d0 13be 773e 963d c093 6f3e
000002d0: 725b 953e e2c4 2c3e 090a b7bd 8b1d 19be
000002e0: ff23 1fbd 4d35 113d 449f c13d f9e5 52bd
000002f0: 8474 fcbc ed6f 4f3e 2b6c 10be 9ed6 683d
00000300: 8d42 42be d779 453e b781 4d3d 639f 643d
00000310: a5d7 ac3e 38cd 7b3e cf62 2b3e 6e3b a13b
00000320: 90b8 a63d f7e5 5abd a1b2 a23c 3864 14bd
00000330: df6d cebd 68c5 60bd 08ba 993e f28d c43e
00000340: b610 803e 3884 963e 8d1b e93e 7371 d7be
00000350: c199 b3be 44eb abbc b3f8 95bd c986 123e
00000360: 66e5 353d 44c3 8cbe f340 c2be 5bfa 393e
00000370: 73bd 833c 2835 98be 523c 73bd 68f8 fc3d
00000380: 1e9b 0a3e 6d3f ce3e c552 b8be 930e 113e
00000390: a45b 95bd 4733 aebe a3fd a03e 562c 923e
000003a0: 0f62 b1be 9579 d53d b20f 593c 79a7 343e
000003b0: 2397 9fbe 390b 86be 46c1 9e3d 617b ba3e
000003c0: a244 5bbe 63c0 a7bd 068b 913d 6dad a7bd
000003d0: 1da3 3d3d b61b 7ebd 384f 02bf 2cb5 b93d
000003e0: da16 91be dca4 31be 4b7d ad3e 9187 e23d
000003f0: 924c 4d3e a6d1 4b3d fa33 f7be 6d3b 8ebe

fc1.bias f4 [64]
0.29371852 0.2697539 0.42708868 0.30807048 0.26188418 0.24420612 0.35547325 0.3039889
0.15538925 0.36093435 0.30400366 0.2269284 0.1598365 0.28271258 0.43583125 0.48178104
0.3248043 0.23198457 0.2865151 0.29261786 -0.06643624 0.45595044 -0.042727545 0.32766664
0.08572505 0.012443157 0.28119552 0.22688195 0.3990606 0.31659535 -0.05532065 0.036346126
0.46579236 -0.117789246 0.2883791 0.3555305 0.25628346 0.26597214 0.24684376 0.38145816
0.34529227 0.40271097 0.31673148 0.38548154 0.39938965 0.33425838 0.0014943897 0.46180993
0.24684 0.039792925 0.30980217 0.5177774 0.45981652 -0.068290666 0.38734338 0.22209206
0.22949198 0.3636164 0.46505165 0.39898458 0.25218964 0.3341691 0.33366835 0.3017884
00000000: 4662 963e 2f1d 8a3e 5eab da3e 6abb 9d3e
00000010: af15 863e 2b11 7a3e 9700 b63e 6fa4 9b3e
00000020: 5c1e 1f3e 63cc b83e 5ea6 9b3e eb5f 683e
00000030: 2eac 233e b4bf 903e 4625 df3e 01ac f63e
00000040: c04c a63e 5d8d 6d3e 1bb2 923e 02d2 953e
00000050: b90f 88bd 5672 e93e 1403 2fbd ecc3 a73e
00000060: 9d90 af3d 62de 4b3c dcf8 8f3e be53 683e
00000070: ac51 cc3e c918 a23e e897 62bd addf 143d
00000080: 567c ee3e 7d3b f1bd 6da6 933e 1808 b63e
00000090: 9637 833e 802d 883e 9cc4 7c3e 7c4e c33e
000000a0: 26ca b03e 2230 ce3e a12a a23e d65d c53e
000000b0: cd7c cc3e ea23 ab3e 66df c33a 5a72 ec3e
000000c0: a0c3 7c3e e8fd 223d 649e 9e3e 0f8d 043f
000000d0: 126d eb3e fadb 8bbd df51 c63e 1a6c 633e
000000e0: f2ff 6a3e ee2b ba3e 401b ee3e b547 cc3e
000000f0: 001f 813e 3618 ab3e 94d6 aa3e 0284 9a3e

fc2.weight f4 [32, 64]
0.35254285 0.23180205 0.39614165 0.3940848 0.546089 0.39577267 0.34595057 0.30996314
-0.264727 0.3354918 0.37298724 0.36103082 0.38980222 0.26345107 0.16357876 0.420559
0.5234178 0.43620893 0.40645248 0.28821173 -0.2091226 0.22559984 -0.21197066 0.2733899
-0.3178425 -0.26940686 0.52662575 0.44324997 0.4937519 0.28331286 -0.13615377 -0.32719854
0.25081003 -0.39303648 0.46194798 0.29437762 0.4316199 0.40287024 0.44587913 0.31103972
0.3477399 0.41831267 0.31790948 0.27373648 0.38502368 0.35936448 -0.37310225 0.46635622
0.30984253 -0.3590877 0.5714409 0.32731128 0.41616344 -0.35023412 0.40237242 0.40107867
0.4267468 0.2876369 0.26872963 0.2807111 0.3738213 0.30350104 0.35690448 0.39660692
0.4704488 0.44453144 0.22271174 0.3620618 0.55246496 0.32961398 0.33459437 0.46106043
-0.32550466 0.41614693 0.4861821 0.45797524 0.30145198 0.42733553 0.2414871 0.3546773
0.57528913 0.38713792 0.27921748 0.44373 -0.35950837 0.2627919 -0.27019393 0.20757677
-0.35227397 -0.31170395 0.51136214 0.3261534 0.45614228 0.42288637 -0.22223996 -0.2004451
0.3322074 -0.2398195 0.5167051 0.40045762 0.3269229 0.31708646 0.46641186 0.4712764
0.40557048 0.37326136 0.24906962 0.45699644 0.5017909 0.35747877 -0.33363178 0.47610706
0.5170625 -0.22037375 0.3925078 0.47338843 0.4670301 -0.29566094 0.5045206 0.41677135
0.39240688 0.29707554 0.45572773 0.49348947 0.4481853 0.38488227 0.34281507 0.397005
0.07678463 0.15908864 0.05953124 -0.21591759 -0.29004183 -0.17973873 0.19728202 0.16721402
0.24370931 -0.2932619 -0.30129334 -0.0261202 -0.19893011 -0.055737536 0.31514725 0.02985011
-0.3324486 -0.020332728 -0.024693849 -0.17076533 0.30767065 0.25978357 0.17649062 0.26717392
0.36519608 0.4041824 -0.023859147 -0.1142597 -0.19237585 -0.118175514 0.3123941 0.37243867
0.20084108 0.33032775 -0.044448067 0.05582001 -0.15107746 0.16112414 -0.29571453 0.084656864
-0.08701456 0.27852795 0.19551079 0.04493858 -0.19387668 -0.015570455 0.39078635 -0.017556177
0.052150834 0.37422773 -0.24659054 0.09827037 0.0054413024 0.4143559 -0.001571103 -0.049490634
-0.05212584 -0.12189242 0.12547357 -0.13195774 -0.11406659 -0.16203749 0.07356658 0.15299164
0.41644603 0.3394539 0.3888948 0.5036432 0.46588296 0.3153563 0.43710476 0.27738452
-0.3047296 0.48943675 0.57450515 0.40366215 0.4604415 0.48411018 0.21879473 0.40198398
0.5113961 0.2099593 0.28487232 0.41385388 -0.21563128 0.2469329 -0.03984364 0.3373233
-0.18427145 -0.24869637 0.41491473 0.4642956 0.43265128 0.34557033 -0.16456327 -0.27341977
0.2858096 -0.36243775 0.49408588 0.41763723 0.47011483 0.43325147 0.5420328 0.40953815
0.36434108 0.43988866 0.27255398 0.38062954 0.35029677 0.43268925 -0.24540982 0.4272352
0.5000034 -0.39234012 0.5800888 0.41171217 0.42712313 -0.23189399 0.48592097 0.30282155
0.48630884 0.38712168 0.30783585 0.42281672 0.39409816 0.43636754 0.5026074 0.40469044
00000000: 7f80 b43e 845d 6d3e 14d3 ca3e 7cc5 c93e
00000010: 7dcc 0b3f b7a2 ca3e 6f20 b13e 7db3 9e3e
00000020: 4c8a 87be 95c5 ab3e 2ff8 be3e 08d9 b83e
00000030: 2894 c73e 0fe3 863e 3181 273e 8253 d73e
00000040: b5fe 053f c756 df3e 8a1a d03e 7d90 933e
00000050: 3c24 56be a503 673e d60e 59be c3f9 8b3e
00000060: 41bc a2be b2ef 89be f2d0 063f a9f1 e23e
00000070: 0dcd fc3e 620e 913e e56b 0bbe 9186 a7be
00000080: 2c6a 803e 143c c9be 7284 ec3e aab8 963e
00000090: 49fd dc3e 0245 ce3e 454a e43e 9940 9f3e
000000a0: f70a b23e 142d d63e 08c5 a23e 3027 8c3e
000000b0: d321 c53e 9ffe b73e 4207 bfbe 3ec6 ee3e
000000c0: aea3 9e3e 58da b7be f349 123f 5895 a73e
000000d0: 6013 d53e e351 b3be c203 ce3e 2f5a cd3e
000000e0: 8e7e da3e 2545 933e ee96 893e 5eb9 8f3e
000000f0: 8165 bf3e 7d64 9b3e 2fbc b63e 1010 cb3e
00000100: aade f03e a099 e33e 8c0e 643e 2a60 b93e
00000110: 586e 0d3f 2ac3 a83e f44f ab3e 1d10 ec3e
00000120: 8ca8 a6be 3611 d53e dcec f83e bb7b ea3e
00000130: ea57 9a3e b9cb da3e 6548 773e 4398 b53e
00000140: 2646 133f f136 c63e 98f5 8e3e 9430 e33e
00000150: 7b11 b8be a98c 863e dc56 8abe 018f 543e
00000160: 415d b4be a997 9fbe a1e8 023f 94fd a63e
00000170: 7b8b e93e 9084 d83e df92 63be 7b41 4dbe
00000180: 1717 aa3e 3e93 75be c946 043f c808 cd3e
00000190: 7062 a73e 2859 a23e 89cd ee3e 244b f13e
000001a0: efa6 cf3e 1d1c bf3e 1b0c 7f3e 70fb e93e
000001b0: 5e75 003f 7507 b73e c9d1 aabe 4ec4 f33e
000001c0: 355e 043f a8a9 61be c8f6 c83e f85f f23e
000001d0: 921e ef3e df60 97be 4328 013f 0e63 d53e
000001e0: 8ee9 c83e 491a 983e 2555 e93e a7aa fc3e
000001f0: 8b78 e53e 4a0f c53e 7585 af3e 3d44 cb3e
00000200: 4341 9d3d 22e8 223e 08d7 733d 8019 5dbe
00000210: 5d80 94be 6e0d 38be 4c04 4a3e 273a 2b3e
00000220: ef8e 793e 6c26 96be 1f43 9abe 08fa d5bc
00000230: 56b4 4bbe 0b4d 64bd fb5a a13e 3888 f43c
00000240: b436 aabe d290 a6bc c14a cabc 1bdd 2ebe
00000250: 0287 9d3e 5a02 853e f5b9 343e 05cb 883e
00000260: fbfa ba3e fff0 ce3e 4274 c3bc fd00 eabd
00000270: 2dfe 44be 0106 f2bd 1ff2 9f3e 48b0 be3e
00000280: 49a9 4d3e b820 a93e 2d0f 36bd 86a3 643d
00000290: 0db4 1abe bafd 243e e567 97be 9460 ad3d
000002a0: b134 b2bd 379b 8e3e fb33 483e 8411 383d
000002b0: 9c87 46be 391b 7fbc 2615 c83e f9d1 8fbc
000002c0: 1d9c 553d c79a bf3e 3b82 7cbe fa41 c93d
000002d0: f44c b23b 7526 d43e 78ed cdba b1b6 4abd
000002e0: e881 55bd bca2 f9bd 257c 003e ee1f 07be
000002f0: bf9b e9bd 28ed 25be 13aa 963d d7a9 1c3e
00000300: 6a38 d53e e7cc ad3e 381d c73e c3ee 003f
00000310: 3688 ee3e 6276 a13e 32cc df3e 5805 8e3e
00000320: 8505 9cbe 7497 fa3e c512 133f ceac ce3e
00000330: fdbe eb3e 4add f73e ba0b 603e d8d0 cd3e
00000340: dbea 023f 92ff 563e c9da 913e a8e4 d33e
00000350: 72ce 5cbe fadb 7c3e 1633 23bd a4b5 ac3e
00000360: a8b1 3cbe 43aa 7ebe b46f d43e 27b8 ed3e
00000370: 7884 dd3e 98ee b03e 4683 28be adfd 8bbe
00000380: a355 923e 7191 b9be d3f8 fc3e 8cd4 d53e
00000390: e4b2 f03e 23d3 dd3e a9c2 0a3f fcae d13e
000003a0: ea8a ba3e 1639 e13e 328c 8b3e e0e1 c23e
000003b0: 195a b33e 7289 dd3e b64c 7bbe 92be da3e
000003c0: 3900 003f cee0 c8be b380 143f f0cb d23e
000003d0: e2af da3e 9e75 6dbe a2ca f83e 6d0b 9b3e
000003e0: 79fd f83e d034 c63e a99c 9d3e 6f7b d83e
000003f0: 3cc7 c93e 916b df3e e1aa 003f 9633 cf3e

fc2.bias f4 [32]
0.36492485 0.39109477 -0.022519892 0.40513352 -0.02264733 0.348665 0.05488709 0.009016154
0.25531408 0.28458965 0.13689578 0.40226993 0.040346444 0.35917562 -0.07326749 0.14150627
0.055878256 -0.040999744 0.30979744 0.1893106 0.009809247 -0.111722834 -0.13640498 0.13193324
0.10815079 0.15134102 0.08966108 0.38616392 0.066428885 -0.04040676 0.11281419 -0.019137694
00000000: 6ed7 ba3e 933d c83e a37b b8bc a96d cf3e
00000010: e586 b9bc 3884 b23e 49d1 603d 7eb8 133c
00000020: 87b8 823e bcb5 913e 682e 0c3e 53f6 cd3e
00000030: 5042 253d dee5 b73e 440d 96bd 05e7 103e
00000040: 99e0 643d 59ef 27bd c59d 9e3e a3da 413e
00000050: f7b6 203c f1ce e4bd bfad 0bbe 8219 073e
00000060: 297e dd3d 24f9 1a3e 3aa0 b73d 47b7 c53e
00000070: de0b 883d 8f81 25bd 200b e73d a7c6 9cbc

fc3.weight f4 [1, 32]
0.59722847 0.5851428 -0.574869 0.55218655 -0.61378187 0.6202655 -0.14147586 -0.49372822
0.4963564 0.5904006 -0.5266444 0.452798 0.45565885 0.57509387 -0.52593154 -0.6200001
-0.07144339 -0.15560053 0.46977174 0.59598637 -0.5858144 -0.14289334 -0.10950369 -0.5315568
-0.5235371 -0.46622917 -0.09290454 0.6188369 -0.46500722 -0.019479688 -0.5724258 -0.49292895
00000000: f7e3 183f ebcb 153f 9d2a 13bf 195c 0d3f
00000010: cf20 1dbf b8c9 1e3f 0cdf 10be f2c9 fcbe
00000020: 6d22 fe3e 7e24 173f 2bd2 06bf 24d5 e73e
00000030: 1e4c e93e 5a39 133f 73a3 06bf 54b8 1ebf
00000040: e950 92bd bf55 1fbe ec85 f03e 9092 183f
00000050: eff7 15bf a252 12be 7843 e0bd 1b14 08bf
00000060: 8706 06bf 97b5 eebe bc44 bebd 186c 1e3f
00000070: 6d15 eebe de93 9fbc 7f8a 12bf 2f61 fcbe
