machine_learning/chess_evaluator_state_dict.pth (torch, 29766 bytes, 5 tensors)

fc1.weight f4 [64, 71]
0.676625 0.41347578 1.1194589 -2.9699776 0.029103903 -0.2110812 0.8563631 0.58720315
-1.0514605 -1.9333754 0.4713447 -0.515055 -0.028593631 1.5454711 -2.7635362 0.040521007
-0.8065073 -1.4105681 0.32650867 -0.9336838 -0.08467458 -0.13102122 -0.18438552 -0.33823732
-0.12836662 -0.21928976 -1.3312287 -0.9388034 -1.4376687 -0.4992146 -0.48094195 -0.45862266
-1.5726956 -0.8450616 -2.6886508 -0.6088195 -0.79701287 0.0685357 0.26057443 0.0682034
-1.5743256 -0.54060024 0.17274384 0.72947234 -2.383278 -0.7509064 -1.2699162 0.08506289
-0.67215914 -2.257853 -0.1870382 -2.863742 -0.7101799 -0.7902071 -0.2547649 -0.05887823
-0.11353048 -0.09295671 -0.29246253 1.441316 -0.8691072 -1.2035264 -0.52117115 -0.024747128
-0.034704816 0.83039653 0.75764954 0.7671071 0.77305484 -0.83185184 -0.878723 0.6415907
-1.030436 -0.49107602 0.52400774 -0.07940008 -0.3863197 -0.31618243 0.2894723 -0.96495086
-2.9809027 -0.7481251 0.33462426 -2.2294607 0.07297322 1.2600269 0.8834287 0.9059164
-3.5986109 0.14473584 0.7981042 1.1561074 -0.44573542 0.6814756 -0.8971503 0.31990695
2.3004334 0.17829716 -0.3401132 0.45262483 -0.5663404 -1.9436437 -0.71007174 -1.6873411
-0.315005 -0.42754158 0.4176671 -0.60995466 1.0808693 -0.1289462 -1.714772 0.03319756
-1.0306493 -0.2488801 -1.067169 -1.3783756 -0.69805115 -2.7506046 -2.0245717 -0.1526623
-0.8212669 -0.59602946 -0.39496955 -0.6149805 0.051255707 -0.36604708 -2.4743168 -0.91211414
-0.40789235 -1.543763 -0.23415026 -1.7932829 -0.68462807 -1.4067308 0.078627765 0.2793684
0.2950929 0.095520176 0.24721707 0.3287227 -0.45974857 -0.41829848 -0.4935336 -0.70223993
-0.13053074 -0.78328705 0.21788445 -1.0938818 -1.1744386 -1.2995234 -2.267847 -2.020456
-0.5370886 -0.2666458 -1.0150276 -0.09783944 -1.063895 -3.7013006 -0.106035754 -0.5247532
-3.0252023 -2.6235027 0.6426321 -2.6234121 -0.90038097 0.9958594 -0.99036604 -1.4930795
-2.4368744 -2.4157903 -1.4985293 -1.3818741 0.4879684 0.41453388 -0.46849343 -2.0171278
0.069090426 0.60646117 -1.8948804 0.3504696 -0.43703207 -0.9806468 -0.8459849 0.18679313
0.83257586 -1.3623161 -1.1954986 -1.0730168 -0.1857486 -1.2136183 -0.57900536 0.232712
-1.0149107 -1.8406578 -0.36551026 -1.8295411 -1.116855 -0.8830813 -1.5247006 -0.24371499
-0.6621922 0.23837027 -0.26250246 -2.384469 -0.4064427 -0.83101743 0.85019726 0.62548906
0.77103263 0.73186034 0.578172 -0.5952638 -0.6444772 0.49227145 -2.3794777 0.086877294
-0.39041907 -0.8302525 -1.7690693 -1.6153092 0.51124275 -0.7054901 1.5805385 0.74448836
0.66469616 -0.025339015 0.4632306 0.5151665 0.50681365 0.39410773 -0.26271802 0.24510634
1.1693361 -2.1338997 1.3881928 0.5313311 0.25229913 -0.8594559 0.2508639 -0.63356566
0.1551273 0.5686895 0.110769145 -0.19226138 0.21469074 -0.64111245 -0.5238615 0.2628962
0.046835806 -0.12589203 -0.035412665 0.0805467 -0.474363 -0.38248563 1.2331654 -0.018385481
00000000: 4c37 2d3f 19b3 d33e 6e4a 8f3f 1d14 3ec0
00000010: 4f6b ee3c ac25 58be 9d3a 5b3f f252 163f
00000020: 4296 86bf d878 f7bf 1854 f13e a5da 03bf
00000030: 313d eabc ffd1 c53f c7dd 30c0 5bf9 253d
00000040: 4377 4ebf 7f8d b4bf 252c a73e e705 6fbf
00000050: de69 adbd 6d2a 06be 8fcf 3cbe 712d adbe
00000060: 8a72 03be 7f8d 60be b465 aabf 6b55 70bf
00000070: 8705 b8bf 0e99 ffbe 063e f6be 97d0 eabe
00000080: 174e c9bf f555 58bf db12 2cc0 98db 1bbf
00000090: 0909 4cbf 725c 8c3d 036a 853e 39ae 8b3d
000000a0: 8083 c9bf c764 0abf c3e3 303e b3be 3a3f
000000b0: a087 18c0 673b 40bf 9d8c a2bf 7435 ae3d
000000c0: 9f12 2cbf aa80 10c0 f186 3fbe 8d47 37c0
000000d0: 5ace 35bf 034b 4abf 8c70 82be 4d2a 71bd
000000e0: ab82 e8bd 1660 bebd a6bd 95be 0b7d b83f
000000f0: cf7d 5ebf 270d 9abf 796b 05bf 7dba cabc
00000100: a326 0ebd de94 543f 52f5 413f 2261 443f
00000110: ece6 453f 3ef4 54bf fef3 60bf 4a3f 243f
00000120: 54e5 83bf 516e fbbe 5f25 063f 829c a2bd
00000130: b2cb c5be aae2 a1be b735 943e 0507 77bf
00000140: 1cc7 3ec0 2085 3fbf df53 ab3e 7caf 0ec0
00000150: fc72 953d 9048 a13f 6228 623f 23ea 673f
00000160: a44f 66c0 a235 143e 8f50 4c3f 54fb 933f
00000170: 6f37 e4be 2f75 2e3f a4ab 65bf d8ca a33e
00000180: 4d3a 1340 8893 363e 5123 aebe 71be e73e
00000190: affb 10bf 51c9 f8bf 43c7 35bf cbfa d7bf
000001a0: 5648 a1be bbe6 dabe 76d8 d53e fd25 1cbf
000001b0: ed59 8a3f 790a 04be a67d dbbf 2afa 073d
000001c0: 51ec 83bf 6dda 7ebe fe98 88bf 9d6e b0bf
000001d0: 7bb3 32bf e809 30c0 9592 01c0 8253 1cbe
000001e0: 8c3e 52bf 6395 18bf 7339 cabe 5d6f 1dbf
000001f0: 81f1 513d 866a bbbe 355b 1ec0 5080 69bf
00000200: 44d7 d0be 079a c5bf 16c5 6fbe 4b8a e5bf
00000210: c943 2fbf c10f b4bf 9807 a13d 6009 8f3e
00000220: 6b16 973e 15a0 c33d 7926 7d3e 574e a83e
00000230: 2a64 ebbe 382b d6be 70b0 fcbe ffc5 33bf
00000240: daa9 05be 8085 48bf 1a1d 5f3e 5204 8cbf
00000250: 0154 96bf c856 a6bf 6824 11c0 274f 01c0
00000260: a37e 09bf cc85 88be 6dec 81bf 0b60 c8bd
00000270: b62d 88bf 1ce2 6cc0 4629 d9bd 3a56 06bf
00000280: ea9c 41c0 78e7 27c0 8a83 243f fce5 27c0
00000290: 5e7f 66bf a4f0 7e3f a188 7dbf 3b1d bfbf
000002a0: c0f5 1bc0 4f9c 1ac0 cfcf bfbf 40e1 b0bf
000002b0: fed6 f93e c93d d43e 5fde efbe 9f18 01c0
000002c0: 487f 8d3d 0a41 1b3f 718b f2bf c070 b33e
000002d0: abc2 dfbe ab0b 7bbf 7792 58bf b346 3f3e
000002e0: b123 553f 6060 aebf 1906 99bf 9d58 89bf
000002f0: e234 3ebe d857 9bbf b239 14bf 0e4c 6e3e
00000300: 98e8 81bf ad9a ebbf 2924 bbbe 672e eabf
00000310: 1bf5 8ebf 9e11 62bf 6429 c3bf 6c90 79be
00000320: 6e85 29bf 5617 743e b966 86be 249b 18c0
00000330: 4219 d0be 8fbd 54bf 87a6 593f 0d20 203f
00000340: 6562 453f 335b 3b3f 1503 143f 3563 18bf
00000350: 75fc 24bf 010b fc3e 5d49 18c0 b9ec b13d
00000360: 02e5 c7be 6e8b 54bf dd70 e2bf 74c2 cebf
00000370: cee0 023f 009b 34bf 164f ca3f ca96 3e3f
00000380: 8729 2a3f c493 cfbc 902c ed3e f4e1 033f
00000390: 8abe 013f 7dc8 c93e fa82 86be 28fd 7a3e
000003a0: ceac 953f d091 08c0 4db0 b13f 5105 083f
000003b0: 5a2d 813e 4d05 5cbf 3c71 803e 5c31 22bf
000003c0: b1d9 1e3e a395 113f efda e23d 2be0 44be
000003d0: e4d7 5b3e f21f 24bf ca1b 06bf 559a 863e
000003e0: e7d6 3f3d d7e9 00be df0c 11bd abf5 a43d
000003f0: b5df f2be 28d5 c3be 5dd8 9d3f 269d 96bc

fc1.bias f4 [64]
0.75303954 0.31565025 0.5751992 -2.0396817 -0.661046 3.0364068 0.2196063 -1.5122297
-0.08490195 0.4439994 -1.5329094 3.3591857 1.6645354 -1.0950105 0.7048575 -0.4595172
-3.3940923 -2.6130896 -1.5454968 -1.2602336 0.042479172 0.8201324 -2.1856954 0.7371546
1.4073541 -0.6531159 -0.9146126 -0.42523062 0.5868482 1.0338628 0.03958099 0.23547456
0.7530958 0.29878518 2.7275715 0.27743217 0.4804406 0.4982575 -0.22781503 2.1090422
0.5263629 0.9628445 -1.9758489 -0.37866196 -0.37530676 -1.3019776 -0.02350234 -0.71945137
-0.85868657 0.3261842 -3.0061476 0.7078592 0.682856 -1.0923512 2.105819 0.69224495
0.0053019603 3.03646 0.066664934 -1.3506514 0.21584576 0.3391543 -1.4658785 0.47371438
00000000: 33c7 403f e99c a13e 4140 133f 258a 02c0
00000010: 503a 29bf 7d54 4240 79e0 603e be90 c1bf
00000020: 13e1 adbd e453 e33e 6036 c4bf e6fc 5640
00000030: 7f0f d53f 4e29 8cbf 8b71 343f d745 ebbe
00000040: cf38 59c0 dc3c 27c0 d7d2 c5bf 564f a1bf
00000050: a4fe 2d3d 32f4 513f 6fe2 0bc0 2ab6 3c3f
00000060: 2e24 b43f 9b32 27bf 0d24 6abf d4b7 d9be
00000070: af3b 163f 9e55 843f ad1f 223d 3e20 713e
00000080: e3ca 403f 5ffa 983e 8890 2e40 970b 8e3e
00000090: 4ffc f53e 9b1b ff3e 5848 69be 8cfa 0640
000000a0: b8bf 063f fa7c 763f 9ee8 fcbf fbdf c1be
000000b0: 3528 c0be 34a7 a6bf fb87 c0bc f72d 38bf
000000c0: e2d2 5bbf 9e01 a73e b964 40c0 4336 353f
000000d0: a7cf 2e3f 2ad2 8bbf bdc5 0640 f736 313f
000000e0: 11bc ad3b 5c55 4240 a087 883d 25e2 acbf
000000f0: ac06 5d3e a2a5 ad3e e8a1 bbbf b18a f23e

fc2.weight f4 [32, 64]
-0.65953666 1.8923261 0.24786074 -0.5935235 0.86049104 0.87912536 0.09779167 -3.1174192
0.52342516 0.8125865 -2.9881248 -0.35357165 1.8225037 -1.0834665 -0.025821215 -3.5476806
-3.4401379 1.6902671 -1.5250443 -3.820829 0.36230895 -1.9915855 -3.859874 -0.5105816
0.518113 2.3962367 0.5781858 -0.9022911 1.0105219 -1.4492222 -3.0857606 2.5258176
1.784112 0.88063705 0.20084731 0.5885424 0.7376114 -0.32932833 0.3511838 0.6108029
1.2712145 -0.98981774 0.16674012 1.6852013 0.13507749 -1.1752234 0.18193993 -2.6673722
-2.3222928 -0.78397286 -1.6407783 2.804422 0.28436372 -0.7950337 2.1776161 -0.09879222
-0.82587993 0.22271259 -1.6938086 -1.180179 -2.2228158 0.49021 -0.7102383 2.2526128
1.2535242 0.9221177 2.0700612 0.7955556 1.1296151 -0.6672235 0.6270379 -1.048782
1.4516379 1.79893 -0.83943635 -0.64616907 0.38119942 0.336861 2.2578595 0.3075736
0.54801726 0.9170965 0.2593906 0.055587456 1.8992401 1.4042453 0.015863191 1.8727485
-1.3148639 3.0010583 1.6916893 1.4694115 1.8954701 -0.98357564 0.41337007 0.87476313
-0.32076353 0.46935564 -0.07435847 1.4951779 1.5415581 1.6806339 2.0170891 -0.5513705
1.5481313 1.6936791 1.273065 0.96637356 0.8080061 0.75779784 3.190244 -0.11343619
0.8306409 2.2652276 0.05152137 0.18615182 2.14778 -0.21161744 0.88967174 1.8625429
2.6898832 -0.28956756 0.1433061 0.7848533 0.8663606 2.3055246 0.64961666 1.373104
-1.2473902 -0.84675837 -0.18012306 -1.3598737 0.9017098 0.9260121 -1.0836588 -2.9055793
-0.18184619 -0.5500102 -1.512414 -0.18793625 2.0479367 0.54435134 -0.4297448 -1.6525735
-4.5319886 1.2960275 -1.2605135 -2.4437304 1.6144722 -1.6862676 -2.1450648 0.4396848
0.7080736 1.0176764 -1.1101952 -1.6989083 0.28779545 0.03761439 -2.3053286 1.1530387
1.6482472 0.11760853 0.35758913 -0.109222524 1.2972454 -1.0991372 0.13439617 0.09728828
1.0244155 -0.27556214 -2.2630637 0.6839681 -2.2394826 -1.5262969 -0.4874388 -2.0186055
-1.9331921 -0.6228646 -1.1551182 2.3679578 1.2001487 0.1076162 1.6626863 -2.1639605
-0.32458216 0.3375997 -0.7055159 -1.9148095 -0.63130957 1.8200337 -0.26820722 -0.8149013
1.3843626 1.0678356 2.5827632 1.1041597 1.1346296 -0.9437131 0.76771593 -0.4037859
1.176023 1.3273919 -0.64832383 -1.1849518 0.11590366 0.44422984 1.9484929 0.29363325
0.04945296 1.0756558 0.93717104 0.42736828 1.0605476 1.1821227 0.16670057 1.3704563
-0.41426748 2.0116596 1.6620377 1.5929251 1.3892294 -0.6543305 0.4545429 1.0921923
-0.41533574 1.7431449 -0.14890811 1.5290285 1.2797396 1.5336871 1.5735562 -0.4856556
1.571635 1.563956 1.3813633 1.75464 0.37426051 0.22286563 2.8851898 -0.2634999
0.9258998 2.1290026 0.027117634 0.66860825 1.9556408 -0.18239425 1.3059283 1.9770273
2.7020648 -0.42304546 0.24768563 0.78817093 0.768392 2.472246 0.981619 1.4059403
00000000: 65d7 28bf be37 f23f 35cf 7d3e 28f1 17bf
00000010: 2449 5c3f 5c0e 613f 0047 c83d cc83 47c0
00000020: 31ff 053f ab05 503f 703d 3fc0 5807 b5be
00000030: cd47 e93f 08af 8abf 0387 d3bc 330d 63c0
00000040: 382b 5cc0 ac5a d83f a734 c3bf 7688 74c0
00000050: 8f80 b93e 46ec febf 2d08 77c0 7ab5 02bf
00000060: 0ea3 043f f15b 1940 fc03 143f 8dfc 66bf
00000070: c858 813f 1d80 b9bf 1a7d 45c0 ffa6 2140
00000080: c85d e43f 6e71 613f ebaa 4d3e b7aa 163f
00000090: 1ad4 3c3f b99d a8be 5dce b33e 945d 1c3f
000000a0: 28b7 a23f b264 7dbf ecbd 2a3e adb4 d73f
000000b0: c151 0a3e b86d 96bf 764e 3a3e 3ab6 2ac0
000000c0: 72a0 14c0 72b2 48bf 0605 d2bf a67b 3340
000000d0: 1f98 913e 5487 4bbf 105e 0b40 9353 cabd
000000e0: de6c 53bf c50e 643e b8ce d8bf 1b10 97bf
000000f0: 9d42 0ec0 cefc fa3e 2dd2 35bf cf2a 1040
00000100: 7b73 a03f e80f 6c3f e27b 0440 88a9 4b3f
00000110: 3a97 903f 29cf 2abf 8e85 203f 7d3e 86bf
00000120: 45cf b93f 5743 e63f 4de5 56bf 566b 25bf
00000130: 922c c33e 0c79 ac3e c580 1040 497a 9d3e
00000140: dc4a 0c3f d6c6 6a3f d8ce 843e acaf 633d
00000150: 4d1a f33f 4fbe b33f 86f3 813c 39b6 ef3f
00000160: 764d a8bf 5711 4040 4689 d83f ad15 bc3f
00000170: c49e f23f 9dcb 7bbf 3ea5 d33e 7af0 5f3f
00000180: 1e3b a4be 624f f03e 4149 98bd fd61 bf3f
00000190: c751 c53f 031f d73f fd17 0140 9e26 0dbf
000001a0: 2b29 c63f 7aca d83f cbf3 a23f 4264 773f
000001b0: 7dd9 4e3f 0aff 413f f52c 4c40 3c51 e8bd
000001c0: e2a4 543f 7df9 1040 1208 533d 959e 3e3e
000001d0: 3a75 0940 3eb2 58be 87c1 633f ce67 ee3f
000001e0: 0c27 2c40 3342 94be d6be 123e 25ec 483f
000001f0: cfc9 5d3f b78d 1340 474d 263f dfc1 af3f
00000200: 7baa 9fbf 28c5 58bf 2e72 38be 5710 aebf
00000210: 74d6 663f 210f 6d3f 55b5 8abf 03f5 39c0
00000220: e335 3abe 78cd 0cbf c896 c1bf 5c72 40be
00000230: 6511 0340 9c5a 0b3f 8307 dcbe 8787 d3bf
00000240: 0d06 91c0 3be4 a53f 8258 a1bf 1466 1cc0
00000250: 06a7 ce3f 9ed7 d7bf be48 09c0 5e1e e13e
00000260: 5044 353f 3843 823f e01a 8ebf d475 d9bf
00000270: ed59 933e 8c11 1a3d 818a 13c0 c696 933f
00000280: c4f9 d23f bedc f03d ec15 b73e 0fb0 dfbd
00000290: 230c a63f 87b0 8cbf 269f 093e 143f c73d
000002a0: 0c20 833f 7b16 8dbe 09d6 10c0 8918 2f3f
000002b0: af53 0fc0 b25d c3bf 9491 f9be d530 01c0
000002c0: d772 f7bf 0e74 1fbf eada 93bf 9f8c 1740
000002d0: 799e 993f e265 dc3d e8d2 d43f 547e 0ac0
000002e0: a22f a6be ded9 ac3e b19c 34bf 7a18 f5bf
000002f0: 819d 21bf ddf6 e83f 7552 89be 5f9d 50bf
00000300: cb32 b13f d6ae 883f fe4b 2540 1b55 8d3f
00000310: 8b3b 913f 2f97 71bf 0889 443f 07bd cebe
00000320: ec87 963f fae7 a93f 8df8 25bf 80ac 97bf
00000330: e65e ed3d 1872 e33e 3768 f93f 1957 963e
00000340: 308f 4a3d 17af 893f 71ea 6f3f 04d0 da3e
00000350: 06c0 873f cc4f 973f 8eb3 2a3e 1d6b af3f
00000360: de1a d4be 08bf 0040 a7bd d43f f8e4 cb3f
00000370: 45d2 b13f 3482 27bf d9b9 e83e f5cc 8b3f
00000380: e3a6 d4be 5f1f df3f 5e7b 18be 35b7 c33f
00000390: 82ce a33f dc4f c43f 4a6a c93f daa7 f8be
000003a0: 562b c93f b62f c83f 83d0 b03f 0b98 e03f
000003b0: 139f bf3e e336 643e f3a6 3840 75e9 86be
000003c0: c507 6d3f 9441 0840 cd25 de3c e929 2b3f
000003d0: 7052 fa3f 8fc5 3abe a928 a73f 3b0f fd3f
000003e0: a1ee 2c40 6a99 d8be 4da1 7d3e 92c5 493f
000003f0: 57b5 443f 4739 1e40 624b 7b3f daf5 b33f

fc2.bias f4 [32]
1.6683068 -2.0182106 2.3684096 -3.0663064 -2.0755723 -4.741889 4.2914863 -0.15378995
-2.368275 -4.898433 1.7521225 -2.5211961 -0.06752813 5.3529844 2.63223 -2.8980055
-3.8914156 3.4407103 -3.1860616 -2.2015254 -4.8605866 -3.3460875 1.5282393 -4.5009985
3.777762 -0.091798924 5.439124 -1.2584294 -1.8001484 -4.7390904 2.699506 -0.14703533
00000000: 148b d53f 5d2a 01c0 0694 1740 5d3e 44c0
00000010: 2dd6 04c0 8ebd 97c0 db53 8940 1d7b 1dbe
00000020: d191 17c0 f7bf 9cc0 8d45 e03f 475b 21c0
00000030: 304c 8abd a64b ab40 7576 2840 ec78 39c0
00000040: f40c 79c0 9934 5c40 6fe8 4bc0 cbe5 0cc0
00000050: ed89 9bc0 4c26 56c0 589d c33f 2e08 90c0
00000060: dac6 7140 1301 bcbd 4e0d ae40 3714 a1bf
00000070: 436b e6bf a1a6 97c0 b5c4 2c40 6e90 16be

fc3.weight f4 [1, 32]
-8.127753 4.6599855 -5.913461 3.5153472 4.096255 2.2445476 -2.923983 0.007593046
3.5089836 1.0808463 -9.785823 3.6128259 0.018553335 -2.0384784 -4.4863715 3.000661
2.3025057 -3.4499462 2.6101959 3.2433245 1.0785575 2.6625745 -8.204246 1.870874
-2.4085753 -0.029975092 -0.687114 3.5767984 3.4094315 0.986349 -4.8578067 -0.014681096
00000000: 470b 02c1 9a1e 9540 133b bdc0 73fb 6040
00000010: 8514 8340 aba6 0f40 8a22 3bc0 16cf f83b
00000020: 3093 6040 2c59 8a3f bb92 1cc1 8a38 6740
00000030: 2afd 973c 6e76 02c0 5b90 8fc0 d40a 4040
00000040: 415c 1340 ebcb 5cc0 730d 2740 a192 4f40
00000050: 2c0e 8a3f 9f67 2a40 9744 03c1 cd78 ef3f
00000060: 1926 1ac0 538e f5bc b4e6 2fbf 44ea 6440
00000070: 2034 5a40 5e81 7c3f 2773 9bc0 fb88 70bc
